EXPERIMENT REPORT model4_2026-04-23_00-01.txt
============================================================
Timestamp: 2026-04-23_00-01

MODEL ARCHITECTURE
------------------------------------------------------------
Model: "model4"
┏━━━━━━━━━━━━━━━━━━━━━━━━━━━━━━━━━━━━━━┳━━━━━━━━━━━━━━━━━━━━━━━━━━━━━┳━━━━━━━━━━━━━━━━━┓
┃ Layer (type)                         ┃ Output Shape                ┃         Param # ┃
┡━━━━━━━━━━━━━━━━━━━━━━━━━━━━━━━━━━━━━━╇━━━━━━━━━━━━━━━━━━━━━━━━━━━━━╇━━━━━━━━━━━━━━━━━┩
│ random_flip (RandomFlip)             │ (None, 192, 192, 3)         │               0 │
├──────────────────────────────────────┼─────────────────────────────┼─────────────────┤
│ random_rotation (RandomRotation)     │ (None, 192, 192, 3)         │               0 │
├──────────────────────────────────────┼─────────────────────────────┼─────────────────┤
│ random_zoom (RandomZoom)             │ (None, 192, 192, 3)         │               0 │
├──────────────────────────────────────┼─────────────────────────────┼─────────────────┤
│ random_contrast (RandomContrast)     │ (None, 192, 192, 3)         │               0 │
├──────────────────────────────────────┼─────────────────────────────┼─────────────────┤
│ random_translation                   │ (None, 192, 192, 3)         │               0 │
│ (RandomTranslation)                  │                             │                 │
├──────────────────────────────────────┼─────────────────────────────┼─────────────────┤
│ conv2d (Conv2D)                      │ (None, 192, 192, 32)        │             896 │
├──────────────────────────────────────┼─────────────────────────────┼─────────────────┤
│ batch_normalization                  │ (None, 192, 192, 32)        │             128 │
│ (BatchNormalization)                 │                             │                 │
├──────────────────────────────────────┼─────────────────────────────┼─────────────────┤
│ activation (Activation)              │ (None, 192, 192, 32)        │               0 │
├──────────────────────────────────────┼─────────────────────────────┼─────────────────┤
│ max_pooling2d (MaxPooling2D)         │ (None, 96, 96, 32)          │               0 │
├──────────────────────────────────────┼─────────────────────────────┼─────────────────┤
│ conv2d_1 (Conv2D)                    │ (None, 96, 96, 64)          │          18,496 │
├──────────────────────────────────────┼─────────────────────────────┼─────────────────┤
│ batch_normalization_1                │ (None, 96, 96, 64)          │             256 │
│ (BatchNormalization)                 │                             │                 │
├──────────────────────────────────────┼─────────────────────────────┼─────────────────┤
│ activation_1 (Activation)            │ (None, 96, 96, 64)          │               0 │
├──────────────────────────────────────┼─────────────────────────────┼─────────────────┤
│ max_pooling2d_1 (MaxPooling2D)       │ (None, 48, 48, 64)          │               0 │
├──────────────────────────────────────┼─────────────────────────────┼─────────────────┤
│ conv2d_2 (Conv2D)                    │ (None, 48, 48, 128)         │          73,856 │
├──────────────────────────────────────┼─────────────────────────────┼─────────────────┤
│ batch_normalization_2                │ (None, 48, 48, 128)         │             512 │
│ (BatchNormalization)                 │                             │                 │
├──────────────────────────────────────┼─────────────────────────────┼─────────────────┤
│ activation_2 (Activation)            │ (None, 48, 48, 128)         │               0 │
├──────────────────────────────────────┼─────────────────────────────┼─────────────────┤
│ max_pooling2d_2 (MaxPooling2D)       │ (None, 24, 24, 128)         │               0 │
├──────────────────────────────────────┼─────────────────────────────┼─────────────────┤
│ global_average_pooling2d             │ (None, 128)                 │               0 │
│ (GlobalAveragePooling2D)             │                             │                 │
├──────────────────────────────────────┼─────────────────────────────┼─────────────────┤
│ dense (Dense)                        │ (None, 128)                 │          16,384 │
├──────────────────────────────────────┼─────────────────────────────┼─────────────────┤
│ batch_normalization_3                │ (None, 128)                 │             512 │
│ (BatchNormalization)                 │                             │                 │
├──────────────────────────────────────┼─────────────────────────────┼─────────────────┤
│ activation_3 (Activation)            │ (None, 128)                 │               0 │
├──────────────────────────────────────┼─────────────────────────────┼─────────────────┤
│ dropout (Dropout)                    │ (None, 128)                 │               0 │
├──────────────────────────────────────┼─────────────────────────────┼─────────────────┤
│ dense_1 (Dense)                      │ (None, 81)                  │          10,449 │
└──────────────────────────────────────┴─────────────────────────────┴─────────────────┘
 Total params: 363,061 (1.38 MB)
 Trainable params: 120,785 (471.82 KB)
 Non-trainable params: 704 (2.75 KB)
 Optimizer params: 241,572 (943.64 KB)

CONFIGURATION
------------------------------------------------------------
img_height: 192
img_width: 192
channels: 3
batch_size: 32
epochs: 10
learning_rate: 0.001
…
